…
0, "dropin": 0, "dropout": 0}, "vmenet0": {"bytes_sent": 1466368, "bytes_recv": 1024, "packets_sent": 5292, "packets_recv": 9, "errin": 0, "errout": 0, "dropin": 11453246120, "dropout": 0}, "bridge100": {"bytes_sent": 2932736, "bytes_recv": 2048, "packets_sent": 10584, "packets_recv": 18, "errin": 0, "errout": 0, "dropin": 0, "dropout": 0}}}}, "generated": {"loss": 0.040325844478607174, "accuracy": 11.35, "responsible_ai_metadata": {"shap_sum": 0.0, "flops": 47275136, "params": 359840, "max_width": 400, "depth": 16, "n_fc_layers": 9, "n_cv_layers": 7, "convolutional_layers": "Sequential(\n  (0): Conv2d(1, 10, kernel_size=(1, 1), stride=(1, 1))\n  (1): MaxPool2d(kernel_size=1, stride=1, padding=0, dilation=1, ceil_mode=False)\n  (2): ReLU()\n  (3): Conv2d(10, 20, kernel_size=(28, 28), stride=(1, 1))\n  (4): Dropout(p=0.5, inplace=False)\n  (5): MaxPool2d(kernel_size=1, stride=1, padding=0, dilation=1, ceil_mode=False)\n  (6): ReLU()\n)", "fully_connected_layers": "Sequential(\n  (0): Linear(in_features=20, out_features=100, bias=True)\n  (1): ReLU()\n  (2): Dropout(p=0.5, inplace=False)\n  (3): Linear(in_features=100, out_features=200, bias=True)\n  (4): Softmax(dim=1)\n  (5): Linear(in_features=200, out_features=300, bias=True)\n  (6): Softmax(dim=1)\n  (7): Linear(in_features=300, out_features=400, bias=True)\n  (8): Softmax(dim=1)\n)"}}, "finished": true}, {"_id": {"$oid": "65c5340c8742cbf9f72b8b78"}, "task_id": "wrapper-e944d8660800c2d4f1fa1ccd2f2cad53", "custom_metadata": {"scheduler": "tcp://127.0.0.1:64630", "scheduler_id": "Scheduler-dabc6468-0727-4875-aeb3-6cf5934e0084", "scheduler_pid": 65772}, "submitted_at": 1707440728.210366, "activity_id": "wrap
…
ropin": 0, "dropout": 0}, "vmenet0": {"bytes_sent": 1466368, "bytes_recv": 1024, "packets_sent": 5296, "packets_recv": 9, "errin": 0, "errout": 0, "dropin": 11453246120, "dropout": 0}, "bridge100": {"bytes_sent": 2933760, "bytes_recv": 2048, "packets_sent": 10592, "packets_recv": 18, "errin": 0, "errout": 0, "dropin": 0, "dropout": 0}}}}, "generated": {"loss": 0.05815730080604553, "accuracy": 11.35, "responsible_ai_metadata": {"shap_sum": 0.0, "flops": 5405073024, "params": 42184840, "max_width": 4000, "depth": 24, "n_fc_layers": 17, "n_cv_layers": 7, "convolutional_layers": "Sequential(\n  (0): Conv2d(1, 10, kernel_size=(1, 1), stride=(1, 1))\n  (1): MaxPool2d(kernel_size=1, stride=1, padding=0, dilation=1, ceil_mode=False)\n  (2): ReLU()\n  (3): Conv2d(10, 20, kernel_size=(28, 28), stride=(1, 1))\n  (4): Dropout(p=0.5, inplace=False)\n  (5): MaxPool2d(kernel_size=1, stride=1, padding=0, dilation=1, ceil_mode=False)\n  (6): ReLU()\n)", "fully_connected_layers": "Sequential(\n  (0): Linear(in_features=20, out_features=500, bias=True)\n  (1): ReLU()\n  (2): Dropout(p=0.5, inplace=False)\n  (3): Linear(in_features=500, out_features=1000, bias=True)\n  (4): Softmax(dim=1)\n  (5): Linear(in_features=1000, out_features=1500, bias=True)\n  (6): Softmax(dim=1)\n  (7): Linear(in_features=1500, out_features=2000, bias=True)\n  (8): Softmax(dim=1)\n  (9): Linear(in_features=2000, out_features=2500, bias=True)\n  (10): Softmax(dim=1)\n  (11): Linear(in_features=2500, out_features=3000, bias=True)\n  (12): Softmax(dim=1)\n  (13): Linear(in_features=3000, out_features=3500, bias=True)\n  (14): Softmax(dim=1)\n  (15): Linear(in_features=3500, out_features=4000, bias=True)\n  (16): Softmax(dim=1)\n)"}}, "finished": true}, {"_id": {"$oid": "65c5340c8742cbf9f72b8b79"}, "task_id": "wrapper-e0b4c651a646dfa7893e53b2241ff836", "custom_metadata": {"scheduler": "tcp://127.0.0.1:64630", "scheduler_id": "Scheduler-dabc6468-0727-4875-aeb3-6cf5934e0084", "scheduler_pid": 65772}, "submitted_at": 1707440728.213765, "activity_id": "w
…
"dropin": 0, "dropout": 0}, "vmenet0": {"bytes_sent": 1467392, "bytes_recv": 1024, "packets_sent": 5301, "packets_recv": 9, "errin": 0, "errout": 0, "dropin": 11453246120, "dropout": 0}, "bridge100": {"bytes_sent": 2934784, "bytes_recv": 2048, "packets_sent": 10602, "packets_recv": 18, "errin": 0, "errout": 0, "dropin": 0, "dropout": 0}}}}, "generated": {"loss": 0.018241909003257752, "accuracy": 10.28, "responsible_ai_metadata": {"shap_sum": 0.0, "flops": 324195712, "params": 1890690, "max_width": 100, "depth": 16, "n_fc_layers": 5, "n_cv_layers": 11, "convolutional_layers": "Sequential(\n  (0): Conv2d(1, 20, kernel_size=(1, 1), stride=(1, 1))\n  (1): MaxPool2d(kernel_size=1, stride=1, padding=0, dilation=1, ceil_mode=False)\n  (2): ReLU()\n  (3): Conv2d(20, 40, kernel_size=(1, 1), stride=(1, 1))\n  (4): Dropout(p=0.5, inplace=False)\n  (5): MaxPool2d(kernel_size=1, stride=1, padding=0, dilation=1, ceil_mode=False)\n  (6): ReLU()\n  (7): Conv2d(40, 60, kernel_size=(28, 28), stride=(1, 1))\n  (8): Dropout(p=0.5, inplace=False)\n  (9): MaxPool2d(kernel_size=1, stride=1, padding=0, dilation=1, ceil_mode=False)\n  (10): ReLU()\n)", "fully_connected_layers": "Sequential(\n  (0): Linear(in_features=60, out_features=50, bias=True)\n  (1): ReLU()\n  (2): Dropout(p=0.5, inplace=False)\n  (3): Linear(in_features=50, out_features=100, bias=True)\n  (4): Softmax(dim=1)\n)"}}, "finished": true}, {"_id": {"$oid": "65c5340c8742cbf9f72b8b7a"}, "task_id": "wrapper-74824901e409ecc16236f3e847d16d2d", "custom_metadata": {"scheduler": "tcp://127.0.0.1:64630", "scheduler_id": "Scheduler-dabc6468-0727-4875-aeb3-6cf5934e0084", "scheduler_pid": 65772}, "submitted_at": 1707440728.218762, "activity_id": "wrapp
…
"dropin": 0, "dropout": 0}, "vmenet0": {"bytes_sent": 1467392, "bytes_recv": 1024, "packets_sent": 5301, "packets_recv": 9, "errin": 0, "errout": 0, "dropin": 11453246120, "dropout": 0}, "bridge100": {"bytes_sent": 2934784, "bytes_recv": 2048, "packets_sent": 10602, "packets_recv": 18, "errin": 0, "errout": 0, "dropin": 0, "dropout": 0}}}}, "generated": {"loss": 0.040312224340438844, "accuracy": 11.35, "responsible_ai_metadata": {"shap_sum": 0.0, "flops": 349846656, "params": 2089540, "max_width": 400, "depth": 20, "n_fc_layers": 9, "n_cv_layers": 11, "convolutional_layers": "Sequential(\n  (0): Conv2d(1, 20, kernel_size=(1, 1), stride=(1, 1))\n  (1): MaxPool2d(kernel_size=1, stride=1, padding=0, dilation=1, ceil_mode=False)\n  (2): ReLU()\n  (3): Conv2d(20, 40, kernel_size=(1, 1), stride=(1, 1))\n  (4): Dropout(p=0.5, inplace=False)\n  (5): MaxPool2d(kernel_size=1, stride=1, padding=0, dilation=1, ceil_mode=False)\n  (6): ReLU()\n  (7): Conv2d(40, 60, kernel_size=(28, 28), stride=(1, 1))\n  (8): Dropout(p=0.5, inplace=False)\n  (9): MaxPool2d(kernel_size=1, stride=1, padding=0, dilation=1, ceil_mode=False)\n  (10): ReLU()\n)", "fully_connected_layers": "Sequential(\n  (0): Linear(in_features=60, out_features=100, bias=True)\n  (1): ReLU()\n  (2): Dropout(p=0.5, inplace=False)\n  (3): Linear(in_features=100, out_features=200, bias=True)\n  (4): Softmax(dim=1)\n  (5): Linear(in_features=200, out_features=300, bias=True)\n  (6): Softmax(dim=1)\n  (7): Linear(in_features=300, out_features=400, bias=True)\n  (8): Softmax(dim=1)\n)"}}, "finished": true}, {"_id": {"$oid": "65c5340c8742cbf9f72b8b7b"}, "task_id": "wrapper-38831b7d365ab966ebcabbf100724700", "custom_metadata": {"scheduler": "tcp://127.0.0.1:64630", "scheduler_id": "Scheduler-dabc6468-0727-4875-aeb3-6cf5934e0084", "scheduler_pid": 65772}, "submitted_at": 1707440728.222478, "activity_id": "wrap
…
opin": 0, "dropout": 0}, "vmenet0": {"bytes_sent": 1467392, "bytes_recv": 1024, "packets_sent": 5305, "packets_recv": 9, "errin": 0, "errout": 0, "dropin": 11453246120, "dropout": 0}, "bridge100": {"bytes_sent": 2935808, "bytes_recv": 2048, "packets_sent": 10610, "packets_recv": 18, "errin": 0, "errout": 0, "dropin": 0, "dropout": 0}}}}, "generated": {"loss": 0.05813799858093262, "accuracy": 11.35, "responsible_ai_metadata": {"shap_sum": 0.0, "flops": 5709692544, "params": 43930540, "max_width": 4000, "depth": 28, "n_fc_layers": 17, "n_cv_layers": 11, "convolutional_layers": "Sequential(\n  (0): Conv2d(1, 20, kernel_size=(1, 1), stride=(1, 1))\n  (1): MaxPool2d(kernel_size=1, stride=1, padding=0, dilation=1, ceil_mode=False)\n  (2): ReLU()\n  (3): Conv2d(20, 40, kernel_size=(1, 1), stride=(1, 1))\n  (4): Dropout(p=0.5, inplace=False)\n  (5): MaxPool2d(kernel_size=1, stride=1, padding=0, dilation=1, ceil_mode=False)\n  (6): ReLU()\n  (7): Conv2d(40, 60, kernel_size=(28, 28), stride=(1, 1))\n  (8): Dropout(p=0.5, inplace=False)\n  (9): MaxPool2d(kernel_size=1, stride=1, padding=0, dilation=1, ceil_mode=False)\n  (10): ReLU()\n)", "fully_connected_layers": "Sequential(\n  (0): Linear(in_features=60, out_features=500, bias=True)\n  (1): ReLU()\n  (2): Dropout(p=0.5, inplace=False)\n  (3): Linear(in_features=500, out_features=1000, bias=True)\n  (4): Softmax(dim=1)\n  (5): Linear(in_features=1000, out_features=1500, bias=True)\n  (6): Softmax(dim=1)\n  (7): Linear(in_features=1500, out_features=2000, bias=True)\n  (8): Softmax(dim=1)\n  (9): Linear(in_features=2000, out_features=2500, bias=True)\n  (10): Softmax(dim=1)\n  (11): Linear(in_features=2500, out_features=3000, bias=True)\n  (12): Softmax(dim=1)\n  (13): Linear(in_features=3000, out_features=3500, bias=True)\n  (14): Softmax(dim=1)\n  (15): Linear(in_features=3500, out_features=4000, bias=True)\n  (16): Softmax(dim=1)\n)"}}, "finished": true}, {"_id": {"$oid": "65c5340c8742cbf9f72b8b7c"}, "task_id": "wrapper-6263deaaf14bd92c1a0cd21aa19468d3", "custom_metadata": {"scheduler": "tcp://127.0.0.1:64630", "scheduler_id": "Scheduler-dabc6468-0727-4875-aeb3-6cf5934e0084", "scheduler_pid": 65772}, "submitted_at": 1707440728.226194, "activity_id": "w
…
dropin": 0, "dropout": 0}, "vmenet0": {"bytes_sent": 1470464, "bytes_recv": 1024, "packets_sent": 5321, "packets_recv": 9, "errin": 0, "errout": 0, "dropin": 11453246120, "dropout": 0}, "bridge100": {"bytes_sent": 2941952, "bytes_recv": 2048, "packets_sent": 10642, "packets_recv": 18, "errin": 0, "errout": 0, "dropin": 0, "dropout": 0}}}}, "generated": {"loss": 0.018207813382148743, "accuracy": 10.09, "responsible_ai_metadata": {"shap_sum": 0.0, "flops": 1810792832, "params": 8485880, "max_width": 120, "depth": 20, "n_fc_layers": 5, "n_cv_layers": 15, "convolutional_layers": "Sequential(\n  (0): Conv2d(1, 30, kernel_size=(1, 1), stride=(1, 1))\n  (1): MaxPool2d(kernel_size=1, stride=1, padding=0, dilation=1, ceil_mode=False)\n  (2): ReLU()\n  (3): Conv2d(30, 60, kernel_size=(1, 1), stride=(1, 1))\n  (4): Dropout(p=0.5, inplace=False)\n  (5): MaxPool2d(kernel_size=1, stride=1, padding=0, dilation=1, ceil_mode=False)\n  (6): ReLU()\n  (7): Conv2d(60, 90, kernel_size=(1, 1), stride=(1, 1))\n  (8): Dropout(p=0.5, inplace=False)\n  (9): MaxPool2d(kernel_size=1, stride=1, padding=0, dilation=1, ceil_mode=False)\n  (10): ReLU()\n  (11): Conv2d(90, 120, kernel_size=(28, 28), stride=(1, 1))\n  (12): Dropout(p=0.5, inplace=False)\n  (13): MaxPool2d(kernel_size=1, stride=1, padding=0, dilation=1, ceil_mode=False)\n  (14): ReLU()\n)", "fully_connected_layers": "Sequential(\n  (0): Linear(in_features=120, out_features=50, bias=True)\n  (1): ReLU()\n  (2): Dropout(p=0.5, inplace=False)\n  (3): Linear(in_features=50, out_features=100, bias=True)\n  (4): Softmax(dim=1)\n)"}}, "finished": true}, {"_id": {"$oid": "65c5340c8742cbf9f72b8b7d"}, "task_id": "wrapper-aaab0307f93411e5ca7e5c90fb25363f", "custom_metadata": {"scheduler": "tcp://127.0.0.1:64630", "scheduler_id": "Scheduler-dabc6468-0727-4875-aeb3-6cf5934e0084", "scheduler_pid": 65772}, "submitted_at": 1707440728.229976, "activity_id": "wrapp
…
"dropin": 0, "dropout": 0}, "vmenet0": {"bytes_sent": 1470464, "bytes_recv": 1024, "packets_sent": 5321, "packets_recv": 9, "errin": 0, "errout": 0, "dropin": 11453246120, "dropout": 0}, "bridge100": {"bytes_sent": 2941952, "bytes_recv": 2048, "packets_sent": 10642, "packets_recv": 18, "errin": 0, "errout": 0, "dropin": 0, "dropout": 0}}}}, "generated": {"loss": 0.04012699522972107, "accuracy": 11.35, "responsible_ai_metadata": {"shap_sum": 0.0, "flops": 1836827776, "params": 8687730, "max_width": 400, "depth": 24, "n_fc_layers": 9, "n_cv_layers": 15, "convolutional_layers": "Sequential(\n  (0): Conv2d(1, 30, kernel_size=(1, 1), stride=(1, 1))\n  (1): MaxPool2d(kernel_size=1, stride=1, padding=0, dilation=1, ceil_mode=False)\n  (2): ReLU()\n  (3): Conv2d(30, 60, kernel_size=(1, 1), stride=(1, 1))\n  (4): Dropout(p=0.5, inplace=False)\n  (5): MaxPool2d(kernel_size=1, stride=1, padding=0, dilation=1, ceil_mode=False)\n  (6): ReLU()\n  (7): Conv2d(60, 90, kernel_size=(1, 1), stride=(1, 1))\n  (8): Dropout(p=0.5, inplace=False)\n  (9): MaxPool2d(kernel_size=1, stride=1, padding=0, dilation=1, ceil_mode=False)\n  (10): ReLU()\n  (11): Conv2d(90, 120, kernel_size=(28, 28), stride=(1, 1))\n  (12): Dropout(p=0.5, inplace=False)\n  (13): MaxPool2d(kernel_size=1, stride=1, padding=0, dilation=1, ceil_mode=False)\n  (14): ReLU()\n)", "fully_connected_layers": "Sequential(\n  (0): Linear(in_features=120, out_features=100, bias=True)\n  (1): ReLU()\n  (2): Dropout(p=0.5, inplace=False)\n  (3): Linear(in_features=100, out_features=200, bias=True)\n  (4): Softmax(dim=1)\n  (5): Linear(in_features=200, out_features=300, bias=True)\n  (6): Softmax(dim=1)\n  (7): Linear(in_features=300, out_features=400, bias=True)\n  (8): Softmax(dim=1)\n)"}}, "finished": true}, {"_id": {"$oid": "65c5340c8742cbf9f72b8b7e"}, "task_id": "wrapper-2fbec52a0c55740d637e5953e28f8cd5", "custom_metadata": {"scheduler": "tcp://127.0.0.1:64630", "scheduler_id": "Scheduler-dabc6468-0727-4875-aeb3-6cf5934e0084", "scheduler_pid": 65772}, "submitted_at": 1707440728.234151, "activity_id": "wrap
…
